
FCN8(
  (pool3): Sequential(
    (0): Conv2d(3, 64, kernel_size=(3, 3), stride=(1, 1), padding=(100, 100))
    (1): ReLU(inplace=True)
    (2): Conv2d(64, 64, kernel_size=(3, 3), stride=(1, 1), padding=(1, 1))
    (3): ReLU(inplace=True)
    (4): MaxPool2d(kernel_size=2, stride=2, padding=0, dilation=1, ceil_mode=True)
    (5): Conv2d(64, 128, kernel_size=(3, 3), stride=(1, 1), padding=(1, 1))
    (6): ReLU(inplace=True)
    (7): Conv2d(128, 128, kernel_size=(3, 3), stride=(1, 1), padding=(1, 1))
    (8): ReLU(inplace=True)
    (9): MaxPool2d(kernel_size=2, stride=2, padding=0, dilation=1, ceil_mode=True)
    (10): Conv2d(128, 256, kernel_size=(3, 3), stride=(1, 1), padding=(1, 1))
    (11): ReLU(inplace=True)
    (12): Conv2d(256, 256, kernel_size=(3, 3), stride=(1, 1), padding=(1, 1))
    (13): ReLU(inplace=True)
    (14): Conv2d(256, 256, kernel_size=(3, 3), stride=(1, 1), padding=(1, 1))
    (15): ReLU(inplace=True)
    (16): MaxPool2d(kernel_size=2, stride=2, padding=0, dilation=1, ceil_mode=True)
  )
  (pool4): Sequential(
    (0): Conv2d(256, 512, kernel_size=(3, 3), stride=(1, 1), padding=(1, 1))
    (1): ReLU(inplace=True)
    (2): Conv2d(512, 512, kernel_size=(3, 3), stride=(1, 1), padding=(1, 1))
    (3): ReLU(inplace=True)
    (4): Conv2d(512, 512, kernel_size=(3, 3), stride=(1, 1), padding=(1, 1))
    (5): ReLU(inplace=True)
    (6): MaxPool2d(kernel_size=2, stride=2, padding=0, dilation=1, ceil_mode=True)
  )
  (pool5): Sequential(
    (0): Conv2d(512, 512, kernel_size=(3, 3), stride=(1, 1), padding=(1, 1))
    (1): ReLU(inplace=True)
    (2): Conv2d(512, 512, kernel_size=(3, 3), stride=(1, 1), padding=(1, 1))
    (3): ReLU(inplace=True)
    (4): Conv2d(512, 512, kernel_size=(3, 3), stride=(1, 1), padding=(1, 1))
    (5): ReLU(inplace=True)
    (6): MaxPool2d(kernel_size=2, stride=2, padding=0, dilation=1, ceil_mode=True)
  )
  (adj_pool3): Conv2d(256, 182, kernel_size=(1, 1), stride=(1, 1))
  (adj_pool4): Conv2d(512, 182, kernel_size=(1, 1), stride=(1, 1))
  (output): Sequential(
    (0): Conv2d(512, 4096, kernel_size=(7, 7), stride=(1, 1))
    (1): ReLU(inplace=True)
    (2): Dropout(p=0.5, inplace=False)
    (3): Conv2d(4096, 4096, kernel_size=(1, 1), stride=(1, 1))
    (4): ReLU(inplace=True)
    (5): Dropout(p=0.5, inplace=False)
    (6): Conv2d(4096, 182, kernel_size=(1, 1), stride=(1, 1))
  )
  (up_output): ConvTranspose2d(182, 182, kernel_size=(4, 4), stride=(2, 2), bias=False)
  (up_pool4_out): ConvTranspose2d(182, 182, kernel_size=(4, 4), stride=(2, 2), bias=False)
  (up_final): ConvTranspose2d(182, 182, kernel_size=(16, 16), stride=(8, 8), bias=False)
)
Nbr of trainable parameters: 135146338


FCN8(
  (pool3): Sequential(
    (0): Conv2d(3, 64, kernel_size=(3, 3), stride=(1, 1), padding=(100, 100))
    (1): ReLU(inplace=True)
    (2): Conv2d(64, 64, kernel_size=(3, 3), stride=(1, 1), padding=(1, 1))
    (3): ReLU(inplace=True)
    (4): MaxPool2d(kernel_size=2, stride=2, padding=0, dilation=1, ceil_mode=True)
    (5): Conv2d(64, 128, kernel_size=(3, 3), stride=(1, 1), padding=(1, 1))
    (6): ReLU(inplace=True)
    (7): Conv2d(128, 128, kernel_size=(3, 3), stride=(1, 1), padding=(1, 1))
    (8): ReLU(inplace=True)
    (9): MaxPool2d(kernel_size=2, stride=2, padding=0, dilation=1, ceil_mode=True)
    (10): Conv2d(128, 256, kernel_size=(3, 3), stride=(1, 1), padding=(1, 1))
    (11): ReLU(inplace=True)
    (12): Conv2d(256, 256, kernel_size=(3, 3), stride=(1, 1), padding=(1, 1))
    (13): ReLU(inplace=True)
    (14): Conv2d(256, 256, kernel_size=(3, 3), stride=(1, 1), padding=(1, 1))
    (15): ReLU(inplace=True)
    (16): MaxPool2d(kernel_size=2, stride=2, padding=0, dilation=1, ceil_mode=True)
  )
  (pool4): Sequential(
    (0): Conv2d(256, 512, kernel_size=(3, 3), stride=(1, 1), padding=(1, 1))
    (1): ReLU(inplace=True)
    (2): Conv2d(512, 512, kernel_size=(3, 3), stride=(1, 1), padding=(1, 1))
    (3): ReLU(inplace=True)
    (4): Conv2d(512, 512, kernel_size=(3, 3), stride=(1, 1), padding=(1, 1))
    (5): ReLU(inplace=True)
    (6): MaxPool2d(kernel_size=2, stride=2, padding=0, dilation=1, ceil_mode=True)
  )
  (pool5): Sequential(
    (0): Conv2d(512, 512, kernel_size=(3, 3), stride=(1, 1), padding=(1, 1))
    (1): ReLU(inplace=True)
    (2): Conv2d(512, 512, kernel_size=(3, 3), stride=(1, 1), padding=(1, 1))
    (3): ReLU(inplace=True)
    (4): Conv2d(512, 512, kernel_size=(3, 3), stride=(1, 1), padding=(1, 1))
    (5): ReLU(inplace=True)
    (6): MaxPool2d(kernel_size=2, stride=2, padding=0, dilation=1, ceil_mode=True)
  )
  (adj_pool3): Conv2d(256, 182, kernel_size=(1, 1), stride=(1, 1))
  (adj_pool4): Conv2d(512, 182, kernel_size=(1, 1), stride=(1, 1))
  (output): Sequential(
    (0): Conv2d(512, 4096, kernel_size=(7, 7), stride=(1, 1))
    (1): ReLU(inplace=True)
    (2): Dropout(p=0.5, inplace=False)
    (3): Conv2d(4096, 4096, kernel_size=(1, 1), stride=(1, 1))
    (4): ReLU(inplace=True)
    (5): Dropout(p=0.5, inplace=False)
    (6): Conv2d(4096, 182, kernel_size=(1, 1), stride=(1, 1))
  )
  (up_output): ConvTranspose2d(182, 182, kernel_size=(4, 4), stride=(2, 2), bias=False)
  (up_pool4_out): ConvTranspose2d(182, 182, kernel_size=(4, 4), stride=(2, 2), bias=False)
  (up_final): ConvTranspose2d(182, 182, kernel_size=(16, 16), stride=(8, 8), bias=False)
)
Nbr of trainable parameters: 135146338

val:
Image loss: min  3.9183887565741315e-05,  max 11.010282516479492
Region 8x8 loss: min  0.0,  max 26.99115562438965
Region 16x16 loss: min  0.0,  max 26.838804244995117
Region 32x32 loss: min  0.0,  max 25.40224266052246
Region 60x60 loss: min  0.0,  max 21.988245010375977
train:
Image loss: min  0.0,  max 2.5797924995422363
…
