
FCN8(
  (pool3): Sequential(
    (0): Conv2d(3, 64, kernel_size=(3, 3), stride=(1, 1), padding=(100, 100))
    (1): ReLU(inplace=True)
    (2): Conv2d(64, 64, kernel_size=(3, 3), stride=(1, 1), padding=(1, 1))
    (3): ReLU(inplace=True)
    (4): MaxPool2d(kernel_size=2, stride=2, padding=0, dilation=1, ceil_mode=True)
    (5): Conv2d(64, 128, kernel_size=(3, 3), stride=(1, 1), padding=(1, 1))
    (6): ReLU(inplace=True)
    (7): Conv2d(128, 128, kernel_size=(3, 3), stride=(1, 1), padding=(1, 1))
    (8): ReLU(inplace=True)
    (9): MaxPool2d(kernel_size=2, stride=2, padding=0, dilation=1, ceil_mode=True)
    (10): Conv2d(128, 256, kernel_size=(3, 3), stride=(1, 1), padding=(1, 1))
    (11): ReLU(inplace=True)
    (12): Conv2d(256, 256, kernel_size=(3, 3), stride=(1, 1), padding=(1, 1))
    (13): ReLU(inplace=True)
    (14): Conv2d(256, 256, kernel_size=(3, 3), stride=(1, 1), padding=(1, 1))
    (15): ReLU(inplace=True)
    (16): MaxPool2d(kernel_size=2, stride=2, padding=0, dilation=1, ceil_mode=True)
  )
  (pool4): Sequential(
    (0): Conv2d(256, 512, kernel_size=(3, 3), stride=(1, 1), padding=(1, 1))
    (1): ReLU(inplace=True)
    (2): Conv2d(512, 512, kernel_size=(3, 3), stride=(1, 1), padding=(1, 1))
    (3): ReLU(inplace=True)
    (4): Conv2d(512, 512, kernel_size=(3, 3), stride=(1, 1), padding=(1, 1))
    (5): ReLU(inplace=True)
    (6): MaxPool2d(kernel_size=2, stride=2, padding=0, dilation=1, ceil_mode=True)
  )
  (pool5): Sequential(
    (0): Conv2d(512, 512, kernel_size=(3, 3), stride=(1, 1), padding=(1, 1))
    (1): ReLU(inplace=True)
    (2): Conv2d(512, 512, kernel_size=(3, 3), stride=(1, 1), padding=(1, 1))
    (3): ReLU(inplace=True)
    (4): Conv2d(512, 512, kernel_size=(3, 3), stride=(1, 1), padding=(1, 1))
    (5): ReLU(inplace=True)
    (6): MaxPool2d(kernel_size=2, stride=2, padding=0, dilation=1, ceil_mode=True)
  )
  (adj_pool3): Conv2d(256, 19, kernel_size=(1, 1), stride=(1, 1))
  (adj_pool4): Conv2d(512, 19, kernel_size=(1, 1), stride=(1, 1))
  (output): Sequential(
    (0): Conv2d(512, 4096, kernel_size=(7, 7), stride=(1, 1))
    (1): ReLU(inplace=True)
    (2): Dropout(p=0.5, inplace=False)
    (3): Conv2d(4096, 4096, kernel_size=(1, 1), stride=(1, 1))
    (4): ReLU(inplace=True)
    (5): Dropout(p=0.5, inplace=False)
    (6): Conv2d(4096, 19, kernel_size=(1, 1), stride=(1, 1))
  )
  (up_output): ConvTranspose2d(19, 19, kernel_size=(4, 4), stride=(2, 2), bias=False)
  (up_pool4_out): ConvTranspose2d(19, 19, kernel_size=(4, 4), stride=(2, 2), bias=False)
  (up_final): ConvTranspose2d(19, 19, kernel_size=(16, 16), stride=(8, 8), bias=False)
)
Nbr of trainable parameters: 134353017


FCN8(
  (pool3): Sequential(
    (0): Conv2d(3, 64, kernel_size=(3, 3), stride=(1, 1), padding=(100, 100))
    (1): ReLU(inplace=True)
    (2): Conv2d(64, 64, kernel_size=(3, 3), stride=(1, 1), padding=(1, 1))
    (3): ReLU(inplace=True)
    (4): MaxPool2d(kernel_size=2, stride=2, padding=0, dilation=1, ceil_mode=True)
    (5): Conv2d(64, 128, kernel_size=(3, 3), stride=(1, 1), padding=(1, 1))
    (6): ReLU(inplace=True)
    (7): Conv2d(128, 128, kernel_size=(3, 3), stride=(1, 1), padding=(1, 1))
    (8): ReLU(inplace=True)
    (9): MaxPool2d(kernel_size=2, stride=2, padding=0, dilation=1, ceil_mode=True)
    (10): Conv2d(128, 256, kernel_size=(3, 3), stride=(1, 1), padding=(1, 1))
    (11): ReLU(inplace=True)
    (12): Conv2d(256, 256, kernel_size=(3, 3), stride=(1, 1), padding=(1, 1))
    (13): ReLU(inplace=True)
    (14): Conv2d(256, 256, kernel_size=(3, 3), stride=(1, 1), padding=(1, 1))
    (15): ReLU(inplace=True)
    (16): MaxPool2d(kernel_size=2, stride=2, padding=0, dilation=1, ceil_mode=True)
  )
  (pool4): Sequential(
    (0): Conv2d(256, 512, kernel_size=(3, 3), stride=(1, 1), padding=(1, 1))
    (1): ReLU(inplace=True)
    (2): Conv2d(512, 512, kernel_size=(3, 3), stride=(1, 1), padding=(1, 1))
    (3): ReLU(inplace=True)
    (4): Conv2d(512, 512, kernel_size=(3, 3), stride=(1, 1), padding=(1, 1))
    (5): ReLU(inplace=True)
    (6): MaxPool2d(kernel_size=2, stride=2, padding=0, dilation=1, ceil_mode=True)
  )
  (pool5): Sequential(
    (0): Conv2d(512, 512, kernel_size=(3, 3), stride=(1, 1), padding=(1, 1))
    (1): ReLU(inplace=True)
    (2): Conv2d(512, 512, kernel_size=(3, 3), stride=(1, 1), padding=(1, 1))
    (3): ReLU(inplace=True)
    (4): Conv2d(512, 512, kernel_size=(3, 3), stride=(1, 1), padding=(1, 1))
    (5): ReLU(inplace=True)
    (6): MaxPool2d(kernel_size=2, stride=2, padding=0, dilation=1, ceil_mode=True)
  )
  (adj_pool3): Conv2d(256, 19, kernel_size=(1, 1), stride=(1, 1))
  (adj_pool4): Conv2d(512, 19, kernel_size=(1, 1), stride=(1, 1))
  (output): Sequential(
    (0): Conv2d(512, 4096, kernel_size=(7, 7), stride=(1, 1))
    (1): ReLU(inplace=True)
    (2): Dropout(p=0.5, inplace=False)
    (3): Conv2d(4096, 4096, kernel_size=(1, 1), stride=(1, 1))
    (4): ReLU(inplace=True)
    (5): Dropout(p=0.5, inplace=False)
    (6): Conv2d(4096, 19, kernel_size=(1, 1), stride=(1, 1))
  )
  (up_output): ConvTranspose2d(19, 19, kernel_size=(4, 4), stride=(2, 2), bias=False)
  (up_pool4_out): ConvTranspose2d(19, 19, kernel_size=(4, 4), stride=(2, 2), bias=False)
  (up_final): ConvTranspose2d(19, 19, kernel_size=(16, 16), stride=(8, 8), bias=False)
)
Nbr of trainable parameters: 134353017

val:
Image loss: min  0.04765894263982773,  max 1.5487160682678223
Region 8x8 loss: min  0.0,  max 16.87504768371582
Region 16x16 loss: min  0.0,  max 16.633399963378906
Region 32x32 loss: min  0.0,  max 16.168292999267578
Region 60x60 loss: min  0.0,  max 14.68919849395752
train:
Image loss: min  0.04520300403237343,  max 0.7757745981216431
…
